models/nifty_lstm_state.pt (torch, 85313 bytes, 5 tensors)

lstm.weight_ih_l0 f4 [256, 14]
00000000: 5793 65bd 0a67 ecbd 6a94 e63d c094 103c
00000010: cf2f 12be e737 933d d961 8fbd 2fba dfbd
00000020: 93eb eb3d 14f8 80bd 3dcc 533d 8dea b03d
00000030: e8cb e0bd ddcc b93c 1e51 b2bd d8ad 39bd
00000040: eed9 5b3d 107c cfbd 4fd5 d6bd e497 a73d
00000050: 33f0 563d eee6 0b3d 4853 a93d 9228 c33d
00000060: a61d f93c 0cd4 793d 7984 96bd fa0b 713d
00000070: 6a5b 02bc 75fc 21bd 7fe5 153d ab6b d23d
00000080: 6c7f 223d 3f9f f53c b830 dc3d d92c 8bbc
00000090: 7383 953d b101 e53d 3690 85bb 2f38 08bc
000000a0: 7649 c53d ca2e 9b3d 3672 99bb c042 e33c
000000b0: bbc3 603d e624 ff3b 8349 84bc d876 90bc
000000c0: 1c94 883d 80db 58bd 90f2 3bbc 3b0b d4bd
000000d0: 9453 b5bd eb96 603b cca8 44bd 589c 98bd
000000e0: 4a6a a2bd 39d7 cbbd 6f57 2abd 0281 15bc
000000f0: d269 dcbd 92a8 94bd fc52 54bd 60f0 7bbd
00000100: f679 c4bc 7cff 8fbd 3caa d7bd a62c 98bd
00000110: a047 cb3c 7086 ba3d 8d7e 57bd f3ca f1bd
00000120: 98b6 8d3a 4aef dabb 3872 c6bd 40e8 913c
00000130: c90c f1bd 7dc3 ef3d 2f10 1fbd 0996 ba3c
00000140: 7b00 aebd 6b4b 403d ebaf 1a3d 1bf5 48bd
00000150: 4374 24bd 1c38 ea3c cad5 82bd 6894 a0ba
00000160: b229 9b3c 7823 48bd 932a babd 868c 2bbd
00000170: 951a c1bd c6ce 9ebd b009 593d 6c13 be3d
00000180: c53c c5bb 3357 00be 76e7 aabd bed6 f7bd
00000190: ab79 f43c d962 733d 3a04 203c c183 a33c
000001a0: def5 16bd 1ca3 d1bd 18d4 ccbd 3557 2e3c
000001b0: 3b8b 6abd 364f 02bd 7d9c a9bd 5d31 ad3d
000001c0: afc9 453c 922a 823d e99f 9f3d 8772 1e3d
000001d0: 1c92 823c de8f e6bd 9d3d 8fbc 67d6 babd
000001e0: b42a 193d 523d b83c 4713 59bc 4c33 71bd
000001f0: 0a92 0cbc c25c a83c 11f3 363d 80e3 03be
00000200: df3b f3bc ab1b ecbd 1002 a53d 9109 323d
00000210: 4350 2f3d 68d9 b63d eb1a e0bd fe76 403d
00000220: 0d1d 7cbd 72fa f23d c750 2ebd 44d6 b0bd
00000230: 8fd5 d7bc 2964 5f3d 818a 11bd b458 2ebb
00000240: b424 133c 6289 79bd 9deb 66bd bede 43bc
00000250: e621 bd3d 92cf 8bbc ecde 823d 6b7c 803d
00000260: 0e16 a13b be6a af3d 46d2 91bc 1973 c2bd
00000270: a45a a03d 5429 eb3d 9597 303d 11fa f6bd
00000280: 3b0c 5dbc 1c63 c63d 9b6c 5d3d 026b d4bd
00000290: 855e e73d c193 91bd ba6b f33d 043d 5abd
000002a0: 66da f43d 692d d4bc 0c79 91bd c0bf ecb8
000002b0: 398d cb3d 2ed4 22bd 5395 bcbd e3ca f5bc
000002c0: 1f3b a73d 7338 3cba 2af2 d0bd bcb2 bb3d
000002d0: 5359 d13d 228f 28bc 0a5d 5cbd 9db3 b7bd
000002e0: e464 b73d efc6 743d dbd2 aabc 061d 96bd
000002f0: d98d 3a3d 9298 41bd 2025 b13c 3424 963c
00000300: 7666 ac3d 0813 b5ba 903a 233d 0f93 dfbd
00000310: 040f b8bd 8ec1 4ebd 1112 793d e1c3 623c
00000320: f63b d13d cbb7 e23d 0179 e53d 8348 0bbd
00000330: bf50 29bd 74ff 47bd b7e7 ebbd dbb0 e03d
00000340: 0179 0d3d 6d98 13bd 4499 da3d 51fb e13d
00000350: 02a2 d6bd ee10 1bbd 0fa6 e03d 46a9 02be
00000360: 7183 12bc 5cc8 fabc 9234 053d ac1f 603d
00000370: 7da3 d3bd e531 443d 86a6 a1b9 2d78 febc
00000380: 9dbb ce3c 9e94 ab3c 5f79 e73d 32cf c43d
00000390: 412e 873d 0a84 d2bc 9130 1e3d 0b0d ca3d
000003a0: 649d d83d 4735 f03a 6736 653d 4d7c 013d
000003b0: 6f50 57bc 699b e63d d408 cebd 65a3 b83d
000003c0: a51d ea3d df6b 5abb 8547 b63c 9893 eb3d
000003d0: 90a7 42bd d85d ce3d e3a8 b7bc e9c8 82bd
000003e0: cf1c e9bc b2c2 a6bb e080 4fbd a9a8 293d
000003f0: 4b3a b33c 47a9 b8bd 0950 5e3d f062 62bd
-0.056048717 -0.11543091 0.112587765 0.008824527 -0.1427605 0.07188397 -0.07001085 -0.109241836
0.115195416 -0.06297317 0.05170845 0.08638487 -0.10976392 0.022680694 -0.08706878 -0.045331806
0.05367463 -0.10131085 -0.10489904 0.08183268 0.052475166 0.03415578 0.08267838 0.095292225
0.030409645 0.06099324 -0.07349486 0.058849312 -0.007956365 -0.039547402 0.036595818 0.10274442
0.0396723 0.029983161 0.1075148 -0.016989158 0.073004626 0.11181963 -0.004076029 -0.008314176
0.09633152 0.07577284 -0.0046828045 0.02774179 0.054874163 0.007786381 -0.016148334 -0.017634794
0.066688746 -0.052943707 -0.011471406 -0.103537045 -0.08853832 0.0034269642 -0.04801254 -0.07451695
-0.07930429 -0.0995316 -0.04158729 -0.009124996 -0.10762371 -0.07258715 -0.051836953 -0.061508536
-0.023983937 -0.07031152 -0.105305165 -0.07430391 0.024814427 0.09107673 -0.052610923 -0.118062876
0.0010811863 -0.0066813575 -0.09689754 0.01781094 -0.11770017 0.11707208 -0.038833793 0.02277662
-0.084961854 0.046946924 0.037765425 -0.049061876 -0.04014994 0.028591208 -0.06388433 -0.001225126
0.01894078 -0.04886195 -0.09090152 -0.04188206 -0.09428898 -0.07754283 0.052987754 0.09281048
-0.006019207 -0.12533264 -0.08344929 -0.12101506 0.029843172 0.05942044 0.009766633 0.019960286
-0.03685557 -0.10236189 -0.10001391 0.010640909 -0.057261687 -0.031813823 -0.08281801 0.08456681
0.012072011 0.06355776 0.07794172 0.03868344 0.015938811 -0.11257909 -0.017485434 -0.09122925
0.03739424 0.022490177 -0.013249225 -0.05888681 -0.00857974 0.020552043 0.0446654 -0.12879753
-0.029691635 -0.11528715 0.08057034 0.043466154 0.042801153 0.08928186 -0.10942634 0.04698848
-0.061551142 0.11864175 -0.042557504 -0.08634618 -0.02634695 0.05453888 -0.03553248 -0.0026603164
0.008980919 -0.060922034 -0.056377042 -0.011954961 0.09234981 -0.01706675 0.06390175 0.06273731
0.004915959 0.08565281 -0.017800462 -0.094946094 0.07829788 0.11482492 0.04311331 -0.12059415
-0.0134916855 0.09686872 0.054058652 -0.103719726 0.11297325 -0.0710826 0.118857816 -0.053280845
0.11955719 -0.02590056 -0.07103166 -0.00011289073 0.099390455 -0.03975313 -0.09208169 -0.03000397
0.08165573 -0.00071800424 -0.10202439 0.0916495 0.10222115 -0.010288032 -0.053799666 -0.089698054
0.0895479 0.05976003 -0.020852497 -0.073297545 0.045545433 -0.047264643 0.021624148 0.01832781
0.084179804 -0.0013814876 0.03985077 -0.10916721 -0.08987239 -0.050477557 0.060808245 0.0138406465
0.10216515 0.11070212 0.1120472 -0.0340047 -0.04133677 -0.048827603 -0.115188055 0.109712325
0.034539226 -0.036034036 0.10673764 0.11034263 -0.10480119 -0.037857942 0.10969173 -0.12759885
-0.008942471 -0.030613117 0.032520838 0.054717705 -0.10333917 0.047899146 -0.00030832383 -0.031063164
0.025235945 0.02094489 0.113024466 0.09609832 0.06600619 -0.025697727 0.038620535 0.09865769
0.10576895 0.0018326425 0.055960085 0.031612683 -0.013141735 0.11260111 -0.100602776 0.0901554
0.114314355 -0.0033328456 0.0222509 0.11502761 -0.04752308 0.10076493 -0.022419399 -0.06385977
-0.02845612 -0.0050891275 -0.050660014 0.041420612 0.021878382 -0.09016662 0.054275546 -0.055270135

lstm.weight_hh_l0 f4 [256, 64]
00000000: 5030 03be b7f4 03bd 9533 0d3d c1b7 ae3d
00000010: 0e80 fb3d a44e 993c a5d8 bc3d 3d28 8b3d
00000020: fb13 d9bc d1d3 73bd 1d2f 4dbd 38d2 d1bd
00000030: 2943 653d 06d8 51bd 7edc 32bd c684 cf3d
00000040: 6eeb 46bd d513 b03c 4407 dc3c af31 e3bc
00000050: f95b b23d ba82 6fbc d495 19bd 2d3f ddbd
00000060: 6bfc e43b 4073 d23c 24bd 07be 6ad5 413d
00000070: 2471 07bd 67b7 783d c4e0 5dbd 7db6 e3bd
00000080: 36d7 96bd 942a 6cbd f29d 6cbc e8ec 293d
00000090: 5a49 e43d e2e6 41bd f143 a43d ca27 5a3d
000000a0: 7aad 413d b783 043c 1360 843d c8c6 c93b
000000b0: 6175 eabd 0c7c 02bd ff1f 58bd d5c6 79bc
000000c0: bd87 96bc b852 c73c 9738 db3b 3d9b 4fbd
000000d0: a9e6 e43d 4460 0abd eb36 a6bd c1b4 22bd
000000e0: 32ec 5f3d 7b91 94bc 22de e6bd 1b5b ad3c
000000f0: d560 34bd d631 83bd 3be5 b23d 3921 bb3d
00000100: 80b0 b73d d4bf bebd d696 623d ed68 523d
00000110: c56c b03d 9b9b 93bd 6cc6 cdbd af2b dcbb
00000120: 5f56 abbd f59c fbbc 304c 36bd 4de5 acbd
00000130: 6bb1 a13d 9bca 36bc da99 5a3d 154a d73c
00000140: 7ce2 13bd 08f2 bd3d abf9 bcbc 692e 423d
00000150: 4ecd 3dbd 27bc 813d 4a91 5ebd f77f 9cbc
00000160: acf8 7c3d a927 bebd d758 9cbc 33c9 443d
00000170: 4bb6 9c3d 6fa5 e1bd 00ab 9d3d 70f7 e3bd
00000180: bb3e 20bc be89 e4bd f91a 1a3d a9b0 33bb
00000190: 4dfa dabd 8965 06bd bfc9 df3d 82ec a53d
000001a0: ee5b c9bd 5a03 e2bd 5b5c 91bd 040c da3d
000001b0: 6453 da3b 5412 9bbd b94a 863d f0e4 8c3d
000001c0: 64c8 ddbd 8c13 713d 6a9d ab3d 0153 a53d
000001d0: 4c5d f2bd c18f 83bd b589 8ebd 31af 29bd
000001e0: 5f7d 07bd 1505 c93d e6b9 e23d 89a0 b83d
000001f0: e35d c93d 4583 92bd 4adb 0d3b da97 c13b
00000200: 92cd cb3c 765c 753d 8b0a bd3d 327a ffbd
00000210: 5c19 c8bd 6e27 2f3d 07b3 373d 1914 8dbc
00000220: 75b6 633d c618 cf3d 5dad ca3d 7f9e d23d
00000230: 30a3 91bd a25c 6a3d 6bda a0bc 3903 dd3d
00000240: 46f1 e4bc fb75 f9bb 9dc0 1fbd 23ab f4bd
00000250: a18f aebd 8329 293d b91f 5c3d 4adf 51bd
00000260: a520 123c ef8b f5bd 90b4 80bd 18e7 6c3d
00000270: f609 d4bd 259c 01be 199b 3a3d e919 d7bc
00000280: 3f08 8bbd 785e b9bd 3748 923d 848b edbb
00000290: 6e83 c73d 80a9 62bd 986a 2a3d 27ec ec3d
000002a0: 6f97 01be 2496 4dbd f2e9 f83d 4dba 5bbc
000002b0: 696d 5e3d 6ea0 ef3d 32ef e1bd 450c b7bd
000002c0: aed1 febd 3f2d e83c 9933 f33a 08b0 943c
000002d0: 84b9 e9bd 8863 9dbd 3d3c 2cbd abd8 82bd
000002e0: 9da8 c43d 3710 3b3d e98d af3d d7ed 53bd
000002f0: 37ed cebd 88d9 863b 6f44 36bd 1dce b6bd
00000300: 2b27 38bd 8564 b63d 02df 803d b4a1 bd39
00000310: 2dcd b5bb 18ae 95bd 6340 413d 84fc 2fbd
00000320: edf5 aebc a3d4 153d dcaa b7bd 7b73 6e3d
00000330: b0bc 1e3d 1d3d 03bd fcdf ab3c 57c6 88bd
00000340: 62a5 aebd a993 983b a647 f4bc 93ec 523c
00000350: 8b6e 24bd 6ad4 da3d d298 cebc c72c a2bc
00000360: 831a eebd c58d 9abd 5bd2 3dbd 1098 2fbd
00000370: 4c03 acbd 729b 8a3c 0c4f d83d bc4e f43c
00000380: 4aa3 dabd 2b73 3a3d aa56 e73d 3910 21bd
00000390: 63be 8bbc c264 c2bd e01d 493d 4690 663d
000003a0: 52f1 ebbc c507 aabd fec7 75bd d177 9a3d
000003b0: 49a5 283d 0654 953d ae3e 21bc bcd8 a03d
000003c0: 4064 12bc 50a2 c1bd a8ee b7bd 62b7 b6bd
000003d0: 8a80 823c 2ac4 d3bd c1c1 d8bd 333a 69bd
000003e0: 060a 0d3d 46a3 80bd e195 9dbc 4899 853d
000003f0: 2057 57bd 528f 823d 04a1 2abd bee7 47bb
-0.12811399 -0.0322158 0.03447302 0.08531142 0.12280284 0.018714257 0.09221009 0.06794784
-0.026498785 -0.059528176 -0.05009376 -0.10245174 0.055972252 -0.051231407 -0.04366731 0.101327464
-0.048564367 0.021493832 0.026858933 -0.027733652 0.08708949 -0.01461857 -0.037496403 -0.108030654
0.0069880984 0.025689721 -0.13255745 0.047322668 -0.033066884 0.06072178 -0.05416943 -0.11118791
-0.07365267 -0.057657793 -0.014441954 0.041485697 0.11146803 -0.047339328 0.08020771 0.053260602
0.04728458 0.008088044 0.06463637 0.00615773 -0.114481695 -0.03185658 -0.05276489 -0.015245159
-0.018375272 0.024331436 0.0066900956 -0.050685156 0.111768074 -0.033783212 -0.081159435 -0.03972316
0.054668613 -0.018135777 -0.11272837 0.021161607 -0.04403766 -0.0640599 0.087351285 0.09137196
0.089692116 -0.09313932 0.05531963 0.051369596 0.08614496 -0.07207414 -0.100476116 -0.0067190747
-0.08366083 -0.030714491 -0.04450625 -0.08442173 0.07895168 -0.011156703 0.05336938 0.026280442
-0.036104664 0.092746794 -0.02306827 0.04740754 -0.046338372 0.06334715 -0.054337777 -0.019103987
0.06176059 -0.09284908 -0.01908533 0.04804344 0.07651957 -0.11017882 0.07698631 -0.11131179
-0.009780581 -0.11159085 0.03762338 -0.002741853 -0.10692272 -0.032811675 0.10927152 0.08101751
-0.09831987 -0.110357955 -0.070976935 0.10646823 0.006662773 -0.07571855 0.06557221 0.06879604
-0.10829237 0.058856532 0.08379634 0.08072472 -0.11834201 -0.06423903 -0.06959859 -0.04142684
-0.033078548 0.098154224 0.110706136 0.09014995 0.098323606 -0.07153944 0.00216456 0.0059079947
0.024878297 0.05990263 0.092305265 -0.12474479 -0.09770462 0.042762212 0.04484847 -0.017221497
0.055593926 0.10112147 0.09896348 0.10284137 -0.07111204 0.057217248 -0.0196354 0.1079163
-0.02794708 -0.0076129413 -0.03900205 -0.11946704 -0.08523489 0.041299354 0.05374119 -0.051238336
0.008918916 -0.11989581 -0.062844396 0.057837576 -0.103534624 -0.1265722 0.04555807 -0.026257472
-0.06788682 -0.090512216 0.0714268 -0.0072492976 0.09741865 -0.05533743 0.041605562 0.1156848
-0.12655424 -0.050192013 0.121539965 -0.013411117 0.05430356 0.117005214 -0.11031951 -0.08937887
-0.12442337 0.028341888 0.0018554806 0.018150344 -0.114123374 -0.07685 -0.042049635 -0.063889824
0.09602473 0.04566976 0.08571989 -0.051740494 -0.10103839 0.004115287 -0.044498857 -0.08926032
-0.04495923 0.08905891 0.06292535 0.00036169367 -0.0055481405 -0.073085964 0.047180545 -0.042965427
-0.0213575 0.03657974 -0.08968136 0.0582156 0.038754165 -0.032040704 0.020980828 -0.06678455
-0.08527638 0.0046562743 -0.02981932 0.0128737865 -0.040144484 0.10685046 -0.025219355 -0.019796742
-0.116261505 -0.07546572 -0.04634319 -0.042869627 -0.08399066 0.016919825 0.10561952 0.0298227
-0.10675676 0.04551999 0.11295827 -0.03932211 -0.017058557 -0.09491874 0.049100757 0.056289934
-0.028801594 -0.08302263 -0.06000518 0.075423844 0.041173253 0.07291417 -0.009841604 0.07853839
-0.008935034 -0.09454787 -0.08981067 -0.08921696 0.015930433 -0.1034015 -0.105838306 -0.05694027
0.034433387 -0.06281142 -0.019236507 0.06523377 -0.052573323 0.063749924 -0.041657463 -0.003050312

lstm.bias_ih_l0 f4 [256]
00000000: a4ee aa3c b5b3 d93c e318 d73d 5823 d93c
00000010: c904 8ebd f7f1 3fbd 3ddc e0bd 05fa bdbc
00000020: b54e 12bd e1c4 723c c3c6 973d a045 bc3a
00000030: c315 e8bd 20c5 b9bd 6ca8 a3bc 384d 59bd
00000040: a2fa c43b 80f1 3abd 24fb 8e3d 8907 7fbb
00000050: af07 da3b 2a55 cbbc be74 8fbc cb98 e4bc
00000060: 8284 7c3d cb5d 0fbd 2547 ffbd 3147 59bc
00000070: 4e88 c13c 6897 523c 2dd7 a53d 399c 4bbd
00000080: 3947 9e3d ca78 d3bd 4553 0a3d 4d8a d6bd
00000090: fb6b 70bd 1944 a1bd 5ff6 3bbc 281d d2bc
000000a0: 0fc1 643d 3a90 d53d f1a9 643d 797a e13d
000000b0: 8b04 c13b 50f2 04b8 bdfe f6bd de78 88bc
000000c0: 96df 17bd 4ab2 93bb 418b b33d 86ca 193c
000000d0: fa61 6a3d 222f df3c 20de bc3d 1f7f b0bd
000000e0: 20d9 70bd afe7 293c 85b0 e9bd aa58 943d
000000f0: c0e6 e63d cc7e 9abd b22f 8bbd c63b a6bd
00000100: da9a e93d 32e1 adba 91e6 313d 7a68 03be
00000110: 2938 4d3d 5222 6b3d 18d6 bdbd 7b02 8fbd
00000120: 7041 97bd 764f a63d 808f a3bd c5ff 67bc
00000130: c02d a3bd 13ca bcbd 0efa d73d 8835 883d
00000140: 3bc4 923d 3c24 83bd 2d7d aabd d350 823d
00000150: d88a 233d 64e8 4dbd 6e9e c4bd d004 143c
00000160: b05b 83bd 2578 7fbd 9df2 c1bc b255 eabc
00000170: 2a85 253c e34b ba3d 02e0 c5bc 42d8 6cbd
00000180: 6510 c63d 060d 92bd cdd5 e0bd 5828 d5ba
00000190: 0345 793d 0b0b 493d 9487 fa3a 057d 1fbd
000001a0: 8646 92bd 5c33 a23b f86e a23d 56b2 c53c
000001b0: 7a86 153d 4ade e53d 7ef0 cabd f665 853c
000001c0: 9d38 dc3d 932b d73d 8d02 1e3d 7691 df3d
000001d0: f85b db3d 606e 523d f643 1fbd abaa 343d
000001e0: 0832 a2bd 341e b43b a9ab e63d 6027 cdbd
000001f0: 7a3a f53d 8aeb 4c3d 85e3 b1bd dd8c 7c3d
00000200: b170 8abd 2741 923d f6e7 cebd 8a7b bc3d
00000210: 8104 77bd c111 f5bd 2d99 a3bd c1c2 173d
00000220: afa2 d63d 4129 663d a1f0 4f3d ed7e 68bc
00000230: 4377 d23d a654 6cbd 58cd 88bd ead5 a5bd
00000240: 1cab 223d 8c33 b2bd 5ea3 cfbd 5258 c53d
00000250: 6b64 243d 4aad 9abd 7aac 3f3c 769f ca3d
00000260: b698 633d e47f 35bc df8d 19bd 0a82 00be
00000270: c045 6ebd 3baf 36bd a9b7 bbbc 3ac7 483d
00000280: 4893 523a d1d5 513c 1927 d5bd 866d 95bd
00000290: cf5c 483c a89f 98bd 9829 71bd 1a7e 6abb
000002a0: 7a84 eb3d cb80 cfbd 0d02 b63d d82c 6bbd
000002b0: d56a 4d3d 2dbb b9bd 9d94 003e 5439 e1bd
000002c0: 1e12 013e 78af ee3d e587 5dbb 2611 20bc
000002d0: 2d65 853d f81f 073d 8127 db3d 17d6 d53c
000002e0: 3d81 813d 8b93 60bd 2e3c 903d 8883 f6bc
000002f0: d6c7 c3bd a9ac 703c 3407 bfbc f00c 53bc
00000300: d3f8 e33d a832 db3d 6b17 32bc b3a3 afbc
00000310: c2d6 ac3d 586a 18bd f3af 963c 594d 3dbd
00000320: c086 d23d 7de6 11bd 7a91 f13d 72a2 a63c
00000330: 6915 6f3d ea7d ca3d ad90 7c3d 4391 dc3d
00000340: 6be4 d73d 6e5c 8fbd 9806 9fbd 92ed 65bd
00000350: 583a 473d f77e ddbd 6286 ca3d 26c6 92bd
00000360: 7ec3 7ebd 005e 5cbd 8a1f 7f3d aa7e fbbd
00000370: 8d5f ddbd 90ae 1abb 0a93 dfba a0b3 8ebc
00000380: 7fee cbbc d5fc cd3d 40ba e13d 7c88 7d3d
00000390: 28ef 183c 6ff1 19bb 9d89 1d3a b923 8dbc
000003a0: 128d 933d 4c35 3d3c 05b2 5d3d 280b cebd
000003b0: 9a0a a73d f1f5 34bd 8e7d c3bb a730 8dbb
000003c0: dbde debd c04c bcbd 17c0 45bd 5e3a 2e3d
000003d0: 8740 4ebc 3674 7bbb ba61 eabc d086 523d
000003e0: 6429 563d 9f8f 5dbd 9209 e3bd 506c 03be
000003f0: 08b9 e1bd 8116 fd3c 91b5 3b3c 73cf 973d
0.020865746 0.026574949 0.10502794 0.026506111 -0.069345064 -0.046861615 -0.10979507 -0.023190508
-0.035719592 0.014817447 0.07410958 0.0014364012 -0.11332276 -0.09070802 -0.01997777 -0.053052157
0.006011323 -0.04564047 0.06981495 -0.0038914403 0.006653748 -0.024820883 -0.017511722 -0.027904889
0.061649807 -0.035001557 -0.124647416 -0.013261602 0.023624565 0.012853481 0.08097682 -0.049709532
0.077284284 -0.10325773 0.03377082 -0.104755975 -0.05869673 -0.07874317 -0.011472314 -0.025648668
0.055848178 0.104279 0.05582613 0.11009688 0.005890434 -3.1696924e-05 -0.12060306 -0.016659196
-0.037078463 -0.0045073377 0.08766795 0.009386664 0.057222344 0.027244154 0.092220545 -0.086179964
-0.058800817 0.010370179 -0.114106216 0.07243474 0.11274481 -0.07543716 -0.067962065 -0.0811687
0.11406489 -0.0013265966 0.043432776 -0.12832823 0.050102387 0.057405777 -0.09269351 -0.06982895
-0.07385528 0.08120625 -0.07986355 -0.014160101 -0.079677105 -0.0921823 0.10545741 0.06650835
0.07166334 -0.064033955 -0.08324657 0.06363072 0.039927334 -0.050270453 -0.096005306 0.0090343505
-0.064139724 -0.062370438 -0.023675257 -0.028605316 0.01010255 0.090965055 -0.024154667 -0.057823427
0.09671096 -0.0713139 -0.10978279 -0.0016262634 0.06085683 0.049082797 0.0019113892 -0.038937587
-0.071423575 0.00494997 0.07931322 0.024132889 0.0365052 0.11224039 -0.099091515 0.01628397
0.107529856 0.10506358 0.03857665 0.10916416 0.10710901 0.051374793 -0.038883172 0.044108074
-0.07919699 0.0054967646 0.1126321 -0.10017276 0.11974044 0.050029315 -0.08685974 0.061657775
-0.067597754 0.07141333 -0.10102837 0.09203251 -0.06030703 -0.11966277 -0.079882 0.037050966
0.10480248 0.056191687 0.05076659 -0.014190418 0.102766536 -0.057697915 -0.06679791 -0.080974415
0.039713964 -0.08701238 -0.10138582 0.096359864 0.04013483 -0.075525835 0.011698836 0.09893696
0.05556556 -0.011077855 -0.037488814 -0.12549606 -0.058171988 -0.044600707 -0.022914724 0.049018122
0.0008032811 0.012807325 -0.10407848 -0.072962806 0.012229159 -0.07452327 -0.058877558 -0.0035780729
0.11499877 -0.10131987 0.0888711 -0.057415813 0.05015071 -0.09068904 0.12556691 -0.109972626
0.12604567 0.11654562 -0.0033802923 -0.0097697135 0.065134384 0.032989472 0.10700894 0.026103063
0.06323478 -0.054828208 0.07042728 -0.030092016 -0.095596 0.014689603 -0.023318864 -0.0128815025
0.11131444 0.10703021 -0.010869841 -0.021440363 0.08439399 -0.037210792 0.018394446 -0.046216343
0.10279608 -0.0356202 0.117953256 0.020341132 0.058370028 0.098872975 0.06166141 0.10769894
0.10541614 -0.070000514 -0.077649295 -0.056134768 0.048639625 -0.10815232 0.09888913 -0.071667
-0.062198155 -0.053800583 0.062285937 -0.12280019 -0.108092405 -0.0023602583 -0.0017057371 -0.017419636
-0.024893997 0.100579895 0.110218525 0.06189774 0.009334363 -0.0023489853 0.00060095807 -0.017228948
0.072046414 0.0115483515 0.05412485 -0.10060722 0.08156319 -0.04417986 -0.005965895 -0.0043087783
-0.1088235 -0.091943264 -0.048278894 0.042536132 -0.012588627 -0.0038368828 -0.028611053 0.0513981
0.052285567 -0.054092046 -0.1108581 -0.12834287 -0.1102162 0.03089452 0.011456863 0.07412615

lstm.bias_hh_l0 f4 [256]
00000000: 1871 563c 4b79 6c3d 776d 9b3d fbed e13d
00000010: b9d2 cbbd 1394 9fbd 4e2a 91bd db86 47bd
00000020: 6b4f 813d 70e4 a83d fb5e efbb 5e2d b5bc
00000030: 2b38 773c 9fe0 8fbd 2cbc 82bd c6a1 5bbc
00000040: 4437 d23d fd03 1d3d d39e 373d 12aa b6bc
00000050: 5ee1 89bc b9a5 723d 0a93 86bd e029 74bd
00000060: d64d 233d 3268 83ba 0f86 833d e2fb 09bc
00000070: f07f 5bbd 5158 053d ef12 ae3c 5f29 443d
00000080: eff5 d23d 817b 333d 80c3 a3bd 2919 c73d
00000090: 8844 53bc 89a8 83bd 1794 9abd 3090 a93d
000000a0: 630d d5bd 6eb2 c43d fcc4 cf3d 4bcc b33d
000000b0: ecf8 5e3d 8c52 b93d a25a 97bd 21a6 f83c
000000c0: be40 60bd e8c2 e8bd 2fe2 df3d 4add 553d
000000d0: 9dff f9bd 9e6c 8dbd 5d3a 8a3d e5a2 c2bd
000000e0: e4c2 d13d ab7e 84bc 31b3 cfbd 4124 bebd
000000f0: 56b3 423d 4810 eebd 151e d7bc 0f4f d8bd
00000100: 609d e5bc e62b 773c fdd2 b03d ec46 af3d
00000110: d30c 7ebd ed55 463d da3a c03d 6a84 b7bc
00000120: 42f4 93bd fb8c 63bd 9c69 f13d c72f 863c
00000130: 888f f63c 8bca b63d d714 8f3d 1018 02be
00000140: efa7 2f3d 875c e83d 98b9 d93c b5b5 71bd
00000150: 40f9 94bd 98ef b53d 6a4b 213d 7e13 e1bc
00000160: 7843 bfbd 019e e03d 1fe0 b53d 45b8 e23d
00000170: da4b a3bd a577 753c 2b7b d9bd 3300 44bd
00000180: 1b81 9b3d 55d0 a0bd a7e0 883d 64e3 85bc
00000190: 9395 643c c92e 05bd 1b67 f5bd 3df3 a8bd
000001a0: 27b7 1a3d fca6 9e3b 5db5 6a3d e0d5 14bd
000001b0: 7e8c 36bd dc06 923d a762 83bd fc1c 5abd
000001c0: 7004 c73c ff51 633b 59dd f73d 6e48 60bd
000001d0: 3901 b9bc 49d8 babd ded1 08bd 165b 49bd
000001e0: 118d 23bd 84ba febd 9979 e3bd 6add ab3d
000001f0: 2a9e ba3d 8194 81ba 8dd9 bdbd f8eb 213d
00000200: 8016 71bd 6fcc d6bd a195 59b9 0cd9 bc3d
00000210: f4f4 ddbd 5ddd db3c 332e 773d d6be 8fbd
00000220: 3ba2 bdbd 22be 70bc 4792 55bd 213b fc3d
00000230: ffe0 aabd 7d0d f73b 4529 80bd 205c 69bd
00000240: a43e 3f3d fa1e d4bd 6758 24bd bb11 033e
00000250: 8b58 123d e7f5 65bd 1541 e2bd 88a5 ef3d
00000260: 5eff d7bd 2595 3abc 4678 503d 35e5 e33d
00000270: db4a fdbd 5c04 803d 292b a83d ba11 903d
00000280: 54ea 883c 82ea ebbc dc60 423d ee53 89bc
00000290: 11e9 dcbd d97c f8bc 384a a73d 64be 26bd
000002a0: 046b 723c c32a cb3d 33a7 0c3d 6dc4 b5bd
000002b0: 188c f4bd b9d4 60bd bf3b d7bd 662b 81bd
000002c0: 4a76 10bd 1046 983d dbf5 803c 545e e6bd
000002d0: 658f 853d 02bb f83d 4956 dabd 0d54 02bc
000002e0: ad87 89bc 9df1 023d fb7c d73c 0e93 8e3d
000002f0: 915f 3d3d a926 55bd 7fe8 583a 1d6e b3bd
00000300: 3b23 e6bd 09cc 26bc 23e1 3fbd dce8 a23c
00000310: 5703 2cbd c886 843d d8b7 57ba 2142 aa3d
00000320: ec89 c73c f287 7c3d 24d0 bd3d 91cc b43d
00000330: b03c c7bd 1be9 5fbc ffca e6bd c5e3 20bd
00000340: 5ada acbc f025 f7bd 86e9 b33d 8887 863c
00000350: 5664 e4bd 60f9 7a3d 2e22 e63d 1f59 0c3a
00000360: 3280 f0bd dfd4 2abb c714 64bd f469 e53d
00000370: 5059 d1bc fcc3 9abd eb99 99bd 31b7 bf3d
00000380: 487e 963d a0ca 99bc 7c37 ebbd 1889 b6bc
00000390: 0ca9 933d 03a4 7c3d 2c06 283d 9ffd 6f3d
000003a0: 3ebf 913d df6e 0a3d f073 ad3c 944f b4bd
000003b0: f875 09be 89e0 9fbd 002c 5f3d e4af b93d
000003c0: 85d8 d13d bef1 cbbc e5e7 ba3d aae1 263d
000003d0: 82d9 3fbd e4cb 52bd b72f df3d a66b 64bc
000003e0: 1390 c93d 33a8 f43c d43e 1e3c 5095 173d
000003f0: b8b1 67bd afb0 e3bd d9d9 edbd 8f08 81bd
0.013088487 0.05773286 0.07589238 0.11031719 -0.099523015 -0.07791915 -0.07088147 -0.048712593
0.06313976 0.08246696 -0.0073050237 -0.02211636 0.015089075 -0.07025265 -0.06383547 -0.013405269
0.10264447 0.03833388 0.0448292 -0.022297893 -0.016831096 0.059240077 -0.06571014 -0.059610248
0.039869152 -0.001002556 0.06422054 -0.00842187 -0.053588808 0.03255493 0.021249263 0.047891017
0.10300814 0.043818954 -0.07996273 0.09721596 -0.012894757 -0.0642863 -0.07547777 0.08279455
-0.10402944 0.09604345 0.10144994 0.087792 0.05443661 0.09048948 -0.07390334 0.030352654
-0.054749243 -0.113653004 0.10931813 0.05221299 -0.122069575 -0.06905483 0.06749413 -0.09503726
0.102422506 -0.016173681 -0.101416 -0.09284259 0.04753431 -0.11624199 -0.026259461 -0.10561954
-0.028029144 0.01508615 0.08633993 0.08558449 -0.06202395 0.04842179 0.09386225 -0.022402007
-0.07224323 -0.05555437 0.117877215 0.016380204 0.030097738 0.08925351 0.06986397 -0.12704492
0.042884763 0.11345773 0.026577756 -0.05901118 -0.07274103 0.088835895 0.03937856 -0.027475115
-0.093390405 0.10967637 0.08880638 0.11070303 -0.07973452 0.014982139 -0.106191956 -0.047851752
0.07592984 -0.07852236 0.06683474 -0.01634378 0.013951677 -0.03251532 -0.119825564 -0.08249519
0.037772324 0.0048416834 0.057301868 -0.03633678 -0.044567578 0.071302146 -0.06415301 -0.053250298
0.024294108 0.0034686325 0.121027656 -0.054756574 -0.02258359 -0.09123284 -0.03340327 -0.049159132
-0.039929453 -0.12437919 -0.11107177 0.08391841 0.09112199 -0.0009886177 -0.0927001 0.039531678
-0.05885935 -0.10488211 -0.00020750474 0.09221086 -0.10837737 0.026838953 0.060346793 -0.07018821
-0.09259459 -0.014693769 -0.052141454 0.123159654 -0.08343696 0.0075394497 -0.062578715 -0.056972623
0.046690598 -0.10357471 -0.04012337 0.12799732 0.035728972 -0.056142714 -0.1104757 0.117014945
-0.10546754 -0.011388098 0.05089595 0.11127702 -0.12367793 0.062508315 0.08211357 0.07034631
0.016713299 -0.028798345 0.047455654 -0.016763654 -0.107866414 -0.03033297 0.08168453 -0.040708914
0.014796022 0.099202655 0.03433914 -0.08875356 -0.11940783 -0.054890368 -0.105094425 -0.06307106
-0.03526906 0.07435238 0.015742233 -0.112484604 0.06521491 0.12145044 -0.10660989 -0.00795461
-0.016788328 0.0319687 0.026304713 0.06961642 0.046233717 -0.052038822 0.0008274391 -0.08761237
-0.112371884 -0.010180482 -0.046845566 0.019886427 -0.041995373 0.0647102 -0.0008228994 0.08313394
0.024357758 0.061653085 0.09268215 0.088280804 -0.09728372 -0.0136664165 -0.11269187 -0.039279718
-0.021100212 -0.12067783 0.087847754 0.016422048 -0.1115195 0.06127298 0.11236988 0.0005353856
-0.11743201 -0.0026066822 -0.055683877 0.112018496 -0.025555283 -0.07556912 -0.07500061 0.09361113
0.07348305 -0.018773377 -0.11485192 -0.022282168 0.072099775 0.06167985 0.04102151 0.05859148
0.07116555 0.03379714 0.021173447 -0.08804241 -0.13423908 -0.078064986 0.05448532 0.090667516
0.10246376 -0.024895545 0.091262616 0.040742554 -0.04683829 -0.051463977 0.10897773 -0.013941681
0.09841933 0.02986536 0.009658534 0.03700763 -0.05656597 -0.11117684 -0.11613817 -0.063004605

fc.weight f4 [1, 64]
00000000: 753a d0bd 21c6 e63d 1723 b7bb ac1f 0abd
00000010: 4110 dabd 011b b73d 19a1 cc3d 2258 e2bd
00000020: a11c d9bc 966e 553d b55e 743d 8426 063d
00000030: 3bcc 7abd 73d0 203c 1c19 30bd 9870 cb3d
00000040: 7830 adbc 3b46 ffbd 29a8 813d 046d f83d
00000050: 42fe d63d 0a04 fabd bdbc ec3c 928c 243d
00000060: ded4 a4bd 664b e33d 78e6 de3d 337f 20bd
00000070: d075 fbbd 93c6 dd3c 7e86 2abd a83e 6cbd
00000080: 6f51 fbba 7fde 6cbc 4adb b93d a1ea ba3b
00000090: 3920 afbd 6825 7f3d c517 b1bc 7795 f03d
000000a0: d9b7 9f3d 4256 c1bd f60c d1bc 5665 f4bd
000000b0: 6b3d 2dbc 8c59 c1bd 54af 9a3d ce91 b5bc
000000c0: e75d 4c3d 5365 95bd 8c12 453d ec3a b3bd
000000d0: 72f1 c33d bcef d53d f1a6 adbd b0bc cbbd
000000e0: 2170 d73d 6f78 a43d 7ebf e4bd e368 5f3c
000000f0: 5350 db3c cbd7 893c 6088 c83d 5215 753d
-0.101674 0.11268259 -0.0055889 -0.03372161 -0.106476314 0.089406975 0.099916644 -0.11051966
-0.02650291 0.052107416 0.059660632 0.032751575 -0.061229926 0.009815323 -0.042992696 0.09933585
-0.021141276 -0.12464567 0.06330902 0.12130168 0.104977146 -0.12207802 0.028898591 0.04017312
-0.08048414 0.110983655 0.10883802 -0.039183807 -0.1227833 0.027072227 -0.041632168 -0.05767694
-0.0019174049 -0.014457344 0.09075029 0.0057042395 -0.08551068 0.062291533 -0.02161778 0.11747258
0.07798738 -0.094402805 -0.025518876 -0.11933391 -0.010573725 -0.09440908 0.075529724 -0.022164252
0.04989424 -0.07294717 0.04811339 -0.08751473 0.095675364 0.10446116 -0.08479107 -0.09948099
0.10519434 0.080307834 -0.11169337 0.013635847 0.0267717 0.01682653 0.097916365 0.059834786
