models/reliance_lstm_state.pt (torch, 85349 bytes, 5 tensors)

lstm.weight_ih_l0 f4 [256, 14]
0.05168674 -0.08658143 -0.05389849 -0.036664225 -0.06580608 0.031573936 0.03807734 0.018308394
-0.10365289 -0.11668441 0.11804471 -0.045394976 0.07625211 0.07519157 -0.030886486 0.035931874
-0.060562957 -0.083385676 0.10356597 -0.0930963 0.096146576 -0.014582188 0.05918499 0.023393303
0.014968893 -0.12044102 0.09399329 -0.12937139 0.054090586 -0.015248401 -0.011536569 -0.118503176
-0.118146665 0.1021603 -0.13381611 -0.020155737 -0.09827523 0.07956646 0.02804336 -0.06372041
-0.11511923 0.09878512 0.043207332 -0.0076413173 0.005509666 0.08967597 0.09992227 0.03763566
-0.049398117 -0.018361378 -0.059564017 0.07048155 0.068737 0.0055445605 0.11162759 0.06576579
0.049505435 -0.067513525 -0.09114365 -0.058575734 -0.030600766 0.01129683 0.0810403 0.12230434
0.041280665 -0.034552462 0.048542753 -0.10038317 -0.038483478 0.053250045 -0.084401265 0.06822337
-0.08506474 0.10103211 -0.09456515 -0.1193571 -0.074226186 0.04376013 0.117351495 0.09844063
0.005954393 -0.11044948 -0.11471917 0.11065339 -0.08315695 -0.118847996 0.115698 -0.07400359
0.03053642 0.055895574 -0.08780548 -0.08881149 0.1022991 0.018563371 -0.10659432 -0.11058173
-0.0386266 -0.11963525 0.06559822 -0.015910631 0.08671076 0.06444139 -0.082718134 0.11544382
0.063043624 -0.0803224 0.014816508 -0.009797684 0.06343698 0.09788697 0.049827166 0.075321436
0.007489266 -0.0016673523 0.0243423 -0.061819237 0.1334327 -0.03658691 0.05840896 0.004646164
0.11814705 0.08433204 0.08331961 -0.0053379 -0.046713356 -0.08580756 -0.11507536 0.030150557
0.0017172176 -0.0669727 -0.106815375 -0.0639356 -0.007286209 0.06328893 0.053122196 -0.11871713
0.115008734 -0.09335824 -0.018052723 -0.018928343 0.09650099 -0.09614477 -0.104030475 0.121770255
0.06958712 -0.076773435 0.042054407 0.11302735 -0.06562962 0.06832741 -0.1393356 0.005668028
0.10303759 0.08589606 0.11890857 -0.05822614 -0.09060657 0.024694642 -0.07255295 -0.029225392
0.068358734 -0.011014144 0.0018362302 0.08582422 -0.09293024 0.031493895 -0.09476607 0.032361235
-0.0050892774 -0.031379882 -0.07839487 0.04547634 -0.08435084 -0.09687529 -0.08851533 0.030491946
-0.06490467 -0.07696888 -0.047632296 -0.043668047 0.0024288087 -0.09393304 -0.06497261 0.084876075
0.05922783 -0.038801596 -0.124628335 0.100059174 0.0071953326 0.094567895 -0.0041514286 0.08301186
-0.11158287 0.109357014 -0.08022692 0.014961551 0.062025424 -0.05127552 -0.09266969 0.06243738
-0.1288545 -0.04318476 -0.020472487 -0.086120166 -0.11993147 -0.08383191 -0.014869929 -0.075351715
-0.028344592 0.11203276 -0.053983096 -0.0065222 -0.037988875 0.037103187 0.0975461 -0.0880202
0.06063906 0.02716875 -0.09127782 -0.11448294 -0.09346976 0.033682726 -0.10715651 0.060000747
-0.10013746 -0.0064866124 0.03869734 -0.010322362 0.008079909 -0.088323735 0.07214447 -0.03778677
-0.104643784 -0.09590011 0.11291623 -0.12611333 0.089774236 0.012521125 0.072471164 0.06666748
-0.07966617 0.10969333 0.0824897 -0.114416234 -0.11774869 0.08284331 0.110294364 0.07511122
-0.07932601 0.04336095 -0.06233893 -0.0074387644 0.08963848 0.058594726 -0.10030149 -0.021036614
00000000: 7ab5 533d 9b51 b1bd aac4 5cbd 3a2d 16bd
00000010: 57c5 86bd ac53 013d fcf6 1b3d 7cfb 953c
00000020: f747 d4bd 3cf8 eebd 6dc1 f13d 15f0 39bd
00000030: 112a 9c3d 0afe 993d a805 fdbc 4d2d 133d
00000040: dd10 78bd 1cc6 aabd 651a d43d 46a9 bebd
00000050: 7fe8 c43d 21ea 6ebc f66b 723d 50a3 bf3c
00000060: 1640 753c c8a9 f6bd 8e7f c03d ef79 04be
00000070: 178e 5d3d 6ed4 79bc e103 3dbc cbb1 f2bd
00000080: e1f6 f1bd 6b39 d13d 1707 09be a51d a5bc
00000090: 8644 c9bd bdf3 a23d 30bb e53c d97f 82bd
000000a0: a1c3 ebbd da4f ca3d 2cfa 303d 0464 fabb
000000b0: 6e8a b43b 09a8 b73d 0ca4 cc3d da27 1a3d
000000c0: ae55 4abd 9a6a 96bc 66f9 73bd a258 903d
000000d0: fcc5 8c3d 25af b53b 029d e43d 37b0 863d
000000e0: 36c6 4a3d 8844 8abd 86a9 babd 1ced 6fbd
000000f0: 75ae fabc 5716 393c 75f8 a53d b37a fa3d
00000100: ea15 293d e286 0dbd c4d4 463d b195 cdbd
00000110: daa0 1dbd b81c 5a3d 92da acbd b2b8 8b3d
00000120: 6c36 aebd ece9 ce3d 60ab c1bd 7f71 f4bd
00000130: e603 98bd d23d 333d fb55 f03d 3e9b c93d
00000140: 121d c33b 5633 e2bd e2f1 eabd 3f9e e23d
00000150: 314e aabd 9466 f3bd 13f3 ec3d 328f 97bd
00000160: 8427 fa3c c2f2 643d 5cd3 b3bd cce2 b5bd
00000170: 3182 d13d 3612 983c 1f4e dabd ad78 e2bd
00000180: ed36 1ebd 5303 f5bd 5c58 863d 0357 82bc
00000190: 6995 b13d d9f9 833d 2068 a9bd cf6d ec3d
000001a0: 041d 813d 1280 a4bd f0c0 723c 7786 20bc
000001b0: 3feb 813d f778 c83d 9217 4c3d 2042 9a3d
000001c0: 8468 f53b 0f8b daba 8169 c73c 2b36 7dbd
000001d0: 95a2 083e 28dc 15bd 3c3e 6f3d d93e 983b
000001e0: 15f7 f13d 47b6 ac3d 79a3 aa3d 8de9 aebb
000001f0: 8156 3fbd e0bb afbd a1ac ebbd 4dfe f63c
00000200: 4314 e13a fc28 89bd 05c2 dabd abf0 82bd
00000210: 27c1 eebb a09d 813d a996 593d f721 f3bd
00000220: b389 eb3d 9b32 bfbd 4ee3 93bc 9d0f 9bbc
00000230: 50a2 c53d 8de7 c4bd ee0d d5bd af62 f93d
00000240: b183 8e3d 643b 9dbd 3e41 2c3d e27a e73d
00000250: d268 86bd 3eef 8b3d fead 0ebe ddba b93b
00000260: 5f05 d33d 46ea af3d 5686 f33d 887e 6ebd
00000270: f08f b9bd 6b4c ca3c a496 94bd 176a efbc
00000280: aaff 8b3d ab74 34bc a9ad f03a 9cc4 af3d
00000290: 3652 bebd beff 003d b714 c2bd 378d 043d
000002a0: f4c3 a6bb 3188 00bd 7d8d a0bd 6645 3a3d
000002b0: 22c0 acbd 8d66 c6bd 8647 b5bd 3fca f93c
000002c0: bdec 84bd dca1 9dbd 151a 43bd 44dd 32bd
000002d0: a62c 1f3b f75f c0bd 5c10 85bd 82d3 ad3d
000002e0: e298 723d 6cee 1ebd 243d ffbd d3eb cc3d
000002f0: d3c6 eb3b d0ac c13d b508 88bb 1f02 aa3d
00000300: 8f85 e4bd 92f6 df3d 034e a4bd 4b21 753c
00000310: 5f0e 7e3d 4806 52bd 9bc9 bdbd 57be 7f3d
00000320: 6ff2 03be 81e2 30bd ebb5 a7bc c55f b0bd
00000330: a19e f5bd 10b0 abbd 01a1 73bc 0052 9abd
00000340: eb32 e8bc 6f71 e53d 611d 5dbd 2eb8 d5bb
00000350: 399a 1bbd 83f9 173d 40c6 c73d ef43 b4bd
00000360: aa60 783d 0091 de3c deef babd 0876 eabd
00000370: 136d bfbd e6f6 093d df74 dbbd 58c3 753d
00000380: de14 cdbd a68d d4bb 1a81 1e3d 201f 29bc
00000390: 9861 043c 13e3 b4bd 7bc0 933d 4dc6 1abd
000003a0: 7b4f d6bd 4767 c4bd a040 e73d da23 01be
000003b0: 8edb b73d 6825 4d3c c36b 943d f688 883d
000003c0: 0428 a3bd e6a6 e03d 5cf0 a83d 0f53 eabd
000003d0: 3a26 f1bd c1a9 a93d 03e2 e13d e9d3 993d
000003e0: ad75 a2bd 409b 313d 1b57 7fbd e1c0 f3bb
000003f0: 6194 b73d 0601 703d de6a cdbd fa54 acbc

lstm.weight_hh_l0 f4 [256, 64]
-0.04067508 0.09454703 -0.005356906 0.110325865 0.07529488 -0.019174816 -0.059267003 0.009810067
0.05595111 -0.076095894 0.018265367 -0.04202054 -0.07033381 -0.052698355 -0.0642119 -0.0050519584
0.048639398 -0.076941244 -0.1270912 0.03640525 0.08553378 0.04019864 -0.048112575 0.095688686
0.03749125 -0.06609582 0.084328294 0.08001294 0.06978136 -0.12226086 -0.09628889 0.06377955
-0.06832407 -0.060770784 0.0008933636 0.063717484 -0.05083599 0.022604585 0.10835943 0.099476665
-0.0541812 0.07869574 -0.037868813 -0.08695752 -0.08055733 0.003375053 0.036209803 0.12119543
-0.022045316 -0.011043925 0.05765845 0.064261004 -0.03285548 -0.061471097 0.07616771 -0.08791766
-0.10771089 -0.044946585 -0.100099616 0.08509281 0.09600629 -0.0060064555 -0.03248656 0.10706946
-0.08802987 -0.023476204 0.020992126 -0.034533985 0.08999718 -0.04017417 -0.09183338 0.091579504
-0.05302747 -0.011436279 -0.12162023 0.11569489 0.09861836 0.10372311 0.022079952 -0.0693373
-0.07753293 -0.024611603 -0.01842302 -0.10650912 -0.10272866 0.10852132 -0.12039662 -0.00477212
-0.099095635 0.05954152 0.065336764 0.06589772 -0.12663986 0.10396699 0.089726076 0.02888257
-0.11425686 -0.07682069 -0.09409355 -0.12508777 -0.038288288 0.09451581 0.12098219 0.07623777
0.07353863 -0.11173608 0.029012192 0.10073287 -0.014849478 0.019001517 0.11734242 0.02952623
-0.06277296 -0.010428566 -0.12263904 0.11538443 -0.03638586 -0.024120579 0.095228836 -0.024632411
0.0057897633 0.04759933 -0.006485485 0.07701187 -0.047693912 0.00046860965 -0.019531194 0.00936827
0.0060362373 -0.11215547 0.036141366 -0.07762589 -0.11957219 0.06006725 0.016269274 -0.027672531
0.005090095 -0.060107265 -0.0057383194 0.06479639 -0.10967493 -0.10819225 -0.05873833 -0.07631231
0.10012435 -0.08944338 -0.08519136 0.059517816 0.08094137 -0.060832355 -0.0016534451 -0.09893572
0.053019658 0.025016565 -0.0067428495 -0.0920244 0.025054377 -0.06934388 -0.07562641 0.11690253
0.109249994 0.13052438 0.008421429 0.04971179 -0.07336442 -0.099352546 -0.043614928 -0.11433277
0.0067532286 -0.047042623 -0.033464678 0.11771552 -0.03607838 0.0045991093 -0.067421965 -0.063628875
0.015205298 -0.029295169 0.02103215 -0.0248344 0.062451027 -0.00855089 -0.037347022 -0.02063279
0.06718929 0.08991359 -0.0862279 -0.044245157 0.055062115 -0.04876049 -0.09261779 -0.10132021
0.1127453 0.08240776 0.057395183 -0.01044567 0.1072396 0.068160824 -0.024807261 0.06773548
-0.12177495 -0.059032474 0.035707798 -0.064130254 0.04701033 -0.114087865 -0.10246906 -0.11386646
0.048978288 0.07908702 -0.042940356 -0.117876 -0.085588135 -0.10053818 0.06019258 0.031856906
-0.066002496 -0.10890879 -0.016739408 -0.050521865 -0.043953445 0.089122616 -0.09196775 -0.1209111
0.03647228 -0.05541631 -0.11838695 0.12299152 -0.067174524 -0.038487315 -0.1332311 0.059944093
0.026980603 0.08149459 -0.021412263 0.08043062 -0.064992264 -0.07440622 -0.054641858 -0.012992806
0.101318024 0.05536232 -0.03927661 0.079211175 -0.07407806 0.058838457 -0.0742562 -0.048253458
-0.080886 -0.0073006633 0.012994577 -0.11628052 -0.02877075 -0.042807683 -0.056810535 0.11272013
00000000: ea9a 26bd e0a1 c13d fc88 afbb 87f2 e13d
00000010: 3434 9a3d 8114 9dbc f5c1 72bd 67ba 203c
00000020: fe2c 653d 2ad8 9bbd 40a1 953c bb1d 2cbd
00000030: 2c0b 90bd 3bda 57bd 8781 83bd e68a a5bb
00000040: 1b3a 473d 5f93 9dbd 3224 02be ac1d 153d
00000050: 562c af3d 54a7 243d b111 45bd 6ef8 c33d
00000060: 6d90 193d 3f5d 87bd 50b4 ac3d d3dd a33d
00000070: 88e9 8e3d e763 fabd 1c33 c5bd da9e 823d
00000080: 7ded 8bbd c9ea 78bd 9e30 6a3a 507e 823d
00000090: 6639 50bd 402d b93c 8deb dd3d 6cba cb3d
000000a0: 1bed 5dbd 3b2b a13d 541c 1bbd c916 b2bd
000000b0: 3efb a4bd fe2f 5d3b bb50 143d 4f35 f83d
000000c0: 6198 b4bc 94f1 34bc 442b 6c3d 469b 833d
000000d0: 7893 06bd 1ec9 7bbd d1fd 9b3d 2d0e b4bd
000000e0: 8797 dcbd e919 38bd 0701 cdbd 2445 ae3d
000000f0: f29e c43d cdd1 c4bb a110 05bd 3c47 db3d
00000100: 0149 b4bd 2b51 c0bc aef7 ab3c 8273 0dbd
00000110: 7150 b83d ac8d 24bd 2413 bcbd 098e bb3d
00000120: 5533 59bd 3b5f 3bbc 0714 f9bd 71f1 ec3d
00000130: 6cf8 c93d c86c d43d 04e1 b43c b700 8ebd
00000140: 96c9 9ebd 469e c9bc e0eb 96bc 7421 dabd
00000150: 6763 d2bd 6d40 de3d 8192 f6bd 725f 9cbb
00000160: a7f2 cabd cfe1 733d 48cf 853d 62f5 863d
00000170: e1ad 01be a5ec d43d 4ec2 b73d 249b ec3c
00000180: 80ff e9bd 2a54 9dbd 1fb4 c0bd 0217 00be
00000190: 2ed4 1cbd 8191 c13d 83c5 f73d 8c22 9c3d
000001a0: 6c9b 963d e3d5 e4bd faaa ed3c 094d ce3d
000001b0: 3a4b 73bc 12a9 9b3c 3951 f03d fee0 f13c
000001c0: 1c8f 80bd 93dc 2abc 2d2a fbbd ac4e ec3d
000001d0: 5709 15bd 8598 c5bc 5607 c33d e9c9 c9bc
000001e0: 0eb8 bd3b 84f7 423d 3184 d4bb 66b8 9d3d
000001f0: b15a 43bd b9af f539 e2ff 9fbc 5f7d 193c
00000200: a1cb c53b c4b1 e5bd f808 143d 53fa 9ebd
00000210: 44e2 f4bd 1409 763d 2447 853c 81b1 e2bc
00000220: d0ca a63b 0933 76bd 8308 bcbb f8b3 843d
00000230: 409d e0bd e693 ddbd 9a97 70bd a149 9cbd
00000240: ff0d cd3d 172e b7bd cf78 aebd f4c8 733d
00000250: 97c4 a53d 592b 79bd 69b8 d8ba d09e cabd
00000260: 242b 593d 8aef cc3c 1ff3 dcbb 4a77 bcbd
00000270: d63e cd3c 2a04 8ebd 05e2 9abd 986a ef3d
00000280: 76be df3d 2fa8 053e 09fa 093c 979e 4b3d
00000290: 1640 96bd 5979 cbbd 91a5 32bd 4d27 eabd
000002a0: 304a dd3b c4af 40bd 4212 09bd d614 f13d
000002b0: ecc6 13bd 20b4 963b 8714 8abd db4f 82bd
000002c0: a41f 793c 6cfc efbc 9e4b ac3c 8371 cbbc
000002d0: a6cc 7f3d 0819 0cbc 31f9 18bd 1906 a9bc
000002e0: 8a9a 893d 9e24 b83d 4198 b0bd 693a 35bd
000002f0: d088 613d 14b9 47bd 65ae bdbd f880 cfbd
00000300: 02e7 e63d 66c5 a83d 3617 6b3d 5124 2bbc
00000310: 6fa0 db3d e797 8b3d 9938 cbbc e6b8 8a3d
00000320: 2565 f9bd 09cc 71bd 5742 123d b956 83bd
00000330: e78d 403d e6a6 e9bd 4cdb d1bd d232 e9bd
00000340: 759d 483d 60f8 a13d 3ae2 2fbd f968 f1bd
00000350: d548 afbd f6e6 cdbd 7f8c 763d 637c 023d
00000360: 512c 87bd 920b dfbd 1521 89bc 04f0 4ebd
00000370: 8708 34bd eb85 b63d 9659 bcbd 3da0 f7bd
00000380: f563 153d 36fc 62bd db74 f2bd fae2 fb3d
00000390: cc92 89bd e0a4 1dbd bc6d 08be f087 753d
000003a0: 6d06 dd3c a3e6 a63d c568 afbc cfb8 a43d
000003b0: aa1a 85bd 4a62 98bd 24d0 5fbd c7df 54bc
000003c0: d37f cf3d 9ac3 623d 83e0 20bd 7839 a23d
000003d0: 3db6 97bd 9800 713d a213 98bd 6ba5 45bd
000003e0: 8fa7 a5bd 673a efbb 35e7 543c 7b24 eebd
000003f0: a3b0 ebbc 1c57 2fbd 2ab2 68bd d0d9 e63d

lstm.bias_ih_l0 f4 [256]
-0.12657492 -0.0025737113 -0.044197936 0.08748642 0.08251442 -0.0034236298 -0.06657685 -0.014018869
-0.082614474 -0.049439047 -0.010751331 0.08260071 -0.10451493 0.117836595 -0.056020018 -0.0028363718
0.058310896 0.04289507 -0.022267852 0.04609406 -0.067352325 -0.016369298 0.068357214 -0.11629462
-0.117896006 -0.006288943 -0.009515793 0.019212436 -0.002869369 -0.021836635 0.0856327 -0.010920016
-0.12146682 -0.117267214 -0.06508944 -0.07329284 0.07965142 0.097362354 -0.052778374 0.0955095
0.11435787 0.10467808 0.06494874 -0.055500105 -0.0561538 -0.10331338 0.100431174 0.025975447
-0.07512523 -0.11542788 -0.0468543 0.11930894 -0.07946251 -0.025402064 0.119486 -0.0019008637
0.07865255 -0.109378316 -0.091722965 0.036915895 0.059663866 0.03662681 -0.07361622 0.085836515
0.10183338 0.12352044 -0.035687927 0.021324985 -0.004659536 0.049721006 0.0061017023 0.07714618
0.06080326 -0.030010954 0.039736424 -0.03543603 -0.030011283 -0.07409775 0.02934813 -0.045462925
-0.046224087 -0.08090057 -0.08657462 -0.07253343 0.029360658 0.04311823 0.10072066 -0.043172896
-0.01310462 0.07147061 -0.07011321 -0.044573206 0.05168307 0.06714385 -0.008527255 -0.02019028
-0.02670831 -0.028976135 -0.08839618 -0.09663294 -0.10997836 0.060248535 -0.0344655 -0.09025173
0.016892992 -0.08437472 0.11081837 -0.12101271 0.08475547 0.06081362 0.09855905 0.06320165
0.101732545 -0.097592294 -0.06861633 0.05784727 0.06968763 -0.008868232 -0.03028351 0.067664534
0.020209296 0.096535645 -0.011782802 0.08174183 0.057153746 -0.02950027 0.09826907 -0.12995663
0.08822732 0.08516271 0.08004228 -0.10635618 -0.00010414103 -0.1055976 0.063778326 0.043235544
0.09004338 0.119751945 -0.014855117 -0.051847514 0.07872762 -0.079417594 0.0175225 0.067557536
0.052953634 -0.08150954 0.053974327 0.07529086 -0.05924493 -0.04000839 -0.04970025 0.10739142
-0.002791215 -0.07264834 0.113266565 0.11591641 -0.10877188 0.03448417 0.02494438 0.0482965
-0.048594397 -0.040082835 -0.013866287 0.06972365 -0.107292145 0.06722341 0.029842889 -0.07406698
-0.07037714 -0.05894442 0.024244795 -0.004116764 0.019417506 0.0746517 0.01503278 0.04680866
0.041225415 0.084239796 0.03926075 -0.115798324 -0.069045655 -0.06480865 0.093016595 -0.065561675
-0.116104744 0.07365349 -0.009686099 0.03218365 0.119021185 0.115770355 -0.095585465 -0.08572273
0.059179243 0.012162204 0.0064581735 -0.013815273 0.048687365 0.08523104 0.08545715 -0.065056294
0.110383146 -0.049790826 0.042082045 0.010056251 0.056721915 0.025840918 0.094060324 -0.013259642
0.03236888 -0.04741241 0.02207907 0.10233202 -0.03441204 -0.018195437 -0.016148606 -0.049780514
0.017631454 0.08752524 -0.064152256 -0.058905873 -0.049006622 -0.031169636 -0.058697656 -0.08025782
-0.019310502 0.116296515 0.08666768 -0.09986961 0.071800396 -0.10047576 0.024532273 -0.024638526
-0.036617767 -0.053554855 -0.105148755 -0.05547921 -0.02239066 0.038126778 0.061932076 -0.056515325
-0.10483782 0.049951684 -0.028101198 -0.11163353 -0.10170516 0.09199386 0.10198872 0.1164802
-0.034516837 0.09224308 -0.06446117 0.046199385 -0.069056116 -0.042767454 -0.08210963 0.06361967
00000000: db9c 01be b6ab 28bb e508 35bd 152c b33d
00000010: 52fd a83d fa5e 60bb 7259 88bd 66af 65bc
00000020: c731 a9bd 9980 4abd 5a26 30bc 902a a93d
00000030: ec0b d6bd 5054 f13d 3f75 65bd 6ce2 39bb
00000040: 68d7 6e3d beb2 2f3d 126b b6bc 20cd 3c3d
00000050: 04f0 89bd e818 86bc defe 8b3d e02b eebd
00000060: 7673 f1bd 7a13 cebb 21e8 1bbc 6663 9d3c
00000070: 060c 3cbb bee2 b2bc 3260 af3d dee9 32bc
00000080: 99c3 f8bd cb29 f0bd 9d4d 85bd 8e1a 96bd
00000090: 4920 a33d ea65 c73d 232e 58bd 7c9a c33d
000000a0: 7534 ea3d 7661 d63d d803 853d 1454 63bd
000000b0: 8701 66bd f795 d3bd dcae cd3d 76ca d43c
000000c0: 42db 99bd 7465 ecbd 4bea 3fbd 3f58 f43d
000000d0: 3ebd a2bd fd17 d0bc 13b5 f43d 6726 f9ba
000000e0: 9714 a13d bd01 e0bd 40d9 bbbd 1f35 173d
000000f0: 1962 743d fe05 163d 1ac4 96bd 0ecb af3d
00000100: 058e d03d 49f8 fc3d 812d 12bd bcb1 ae3c
00000110: 05af 98bb 41a8 4b3d caf0 c73b d1fe 9d3d
00000120: d70c 793d 88d9 f5bc a9c2 223d 5f25 11bd
00000130: 39da f5bc 90c0 97bd 7d6b f03c 5537 3abd
00000140: 7855 3dbd 33af a5bd 094e b1bd 688c 94bd
00000150: c385 f03c be9c 303d a246 ce3d 10d6 30bd
00000160: c3b4 56bc 2f5f 923d 8497 8fbd 6592 36bd
00000170: a0b1 533d b782 893d e6b5 0bbc 1666 a5bc
00000180: 63cb dabc 5c5f edbc 0e09 b5bd 7ee7 c5bd
00000190: 563c e1bd 2bc7 763d b22b 0dbd e6d5 b8bd
000001a0: 2c63 8a3c a7cc acbd bef4 e23d 83d5 f7bd
000001b0: 4794 ad3d b417 793d 54d9 c93d de6f 813d
000001c0: 2759 d03d 78de c7bd b886 8cbd 42f1 6c3d
000001d0: 63b8 8e3d 104c 11bc 2015 f8bc b493 8a3d
000001e0: f78d a53c 7bb4 c53d a70c 41bc 4368 a73d
000001f0: 0c1a 6a3d 8daa f1bc 4b41 c93d 5a13 05be
00000200: 86b0 b43d c969 ae3d 35ed a33d 45d1 d9bd
00000210: 4a66 dab8 8e43 d8bd 369e 823d c117 313d
00000220: aa68 b83d 8240 f53d e062 73bc 0f5e 54bd
00000230: f23b a13d b1a5 a2bd 598b 8f3c 9b5b 8a3d
00000240: e9e5 583d 79ee a6bd 2f14 5d3d 1832 9a3d
00000250: d0aa 72bd d6df 23bd 7d92 4bbd 08f0 db3d
00000260: d1ec 36bb a7c8 94bd 4df8 e73d 9565 ed3d
00000270: cbc3 debd 463f 0d3d 2858 cc3c 8dd2 453d
00000280: eb0a 47bd e62d 24bd 6c2f 63bc 46cb 8e3d
00000290: fcbb dbbd 6dac 893d 1379 f43c 6eb0 97bd
000002a0: e421 90bd b46f 71bd 059d c63c ebe5 86bb
000002b0: 7611 9f3c fee2 983d 0d4c 763c 70ba 3f3d
000002c0: fbdb 283d ea85 ac3d e1cf 203d ac27 edbd
000002d0: cf67 8dbd 66ba 84bd 7c7f be3d 3345 86bd
000002e0: 53c8 edbd a4d7 963d 72b2 1ebc 01d3 033d
000002f0: 61c1 f33d 0219 ed3d 50c2 c3bd 668f afbd
00000300: ef65 723d fb43 473c 169f d33b 7459 62bc
00000310: 676c 473d 9d8d ae3d 2904 af3d 3c3c 85bd
00000320: 8f10 e23d 77f1 4bbd 395e 2c3d f9c2 243c
00000330: 3d55 683d 55b0 d33c b3a2 c03d f83e 59bc
00000340: 3b95 043d 8433 42bd 2adf b43c 7393 d13d
00000350: a4f3 0cbd 990e 95bc 154a 84bc a7e6 4bbd
00000360: d76f 903c 6f40 b33d 4262 83bd 4947 71bd
00000370: 2bbb 48bd 7757 ffbc f46c 70bd 365e a4bd
00000380: 0f31 9ebc de2c ee3d d37e b13d 7088 ccbd
00000390: 160c 933d 3cc6 cdbd e8f7 c83c bcd6 c9bc
000003a0: 83fc 15bd 565c 5bbd 3b58 d7bd 2b3e 63bd
000003b0: 9e6c b7bc d32a 1c3d 7dac 7d3d 9d7c 67bd
000003c0: 36b5 d6bd 239a 4c3d 7c34 e6bc 1fa0 e4bd
000003d0: cc4a d0bd 4767 bc3d 76df d03d 2c8d ee3d
000003e0: 8761 0dbd f1e9 bc3d 3804 84bd 913b 3d3d
000003f0: 4b6d 8dbd ed2c 2fbd 1829 a8bd 084b 823d

lstm.bias_hh_l0 f4 [256]
-0.094353415 -0.07736165 0.08359658 0.01213577 0.08503041 -0.058498934 -0.078134984 -0.016359393
0.10098294 -0.00681951 -0.11196393 -0.057051484 -0.050590936 0.10337654 0.07857546 0.007221629
-0.01773672 -0.0039399634 0.11009812 0.07780931 -0.052594908 -0.01927638 0.07108869 -0.014290279
-0.106624156 0.07373115 0.025895357 0.10731211 0.10361939 -0.032496512 -0.027600802 0.053673353
-0.11871689 0.008485873 0.01185682 0.0947977 -0.029697476 0.040388312 -0.05451941 -0.12617613
0.10181876 0.067852795 -0.093568325 0.094751626 -0.015229725 0.012836777 -0.113202244 0.05523658
0.088511065 0.010503078 0.09419365 0.09210438 0.08094634 0.067677766 -0.0240066 -0.014391136
-0.1076946 0.07186366 -0.1087836 -0.11370932 -0.09045475 0.02714543 -0.010986952 0.07347362
-0.06430412 -0.04924608 -0.06704951 -0.01731377 -0.053756747 -0.10992187 0.108279705 0.014763321
0.02407371 -0.050503638 -0.05052198 -0.01639373 0.0467401 -0.073517345 -0.11428867 -0.04575898
-0.069977 -0.011617542 0.07488138 -0.11686532 -0.09602395 -0.019707972 -0.05403752 0.061464034
0.06811944 -0.07837742 -0.11907254 -0.03600781 0.10193668 -0.0762307 -0.040595517 -0.12453565
-0.07682313 0.06330563 -0.09732655 0.10060863 0.0059629935 -0.062219467 -0.059664834 0.06501344
-0.032467958 -0.077057116 -0.013568555 0.026051693 -0.078483246 -0.108682 0.07069656 0.056925505
0.0006183586 0.041085973 0.109880134 0.03679257 0.11257941 0.016204597 0.0014704755 0.014164896
0.03837213 0.09298279 -0.10367569 0.06780552 -0.08245377 0.10259158 0.070299126 0.091384016
-0.07116773 -0.058563262 0.12920173 0.10457582 0.109956086 -0.021410702 -0.09422399 0.08368002
0.02787368 0.039706092 0.10752567 0.07089963 -0.014867352 -0.09698013 0.097297184 0.0597242
0.072357364 0.033454012 0.095723756 -0.053549297 -0.088393 0.0499093 -0.06164178 -0.07464744
0.06736027 -0.0040377984 -0.09147338 0.046127867 0.105159394 -0.11250307 -0.030967446 0.06597708
0.0533803 0.0333847 -0.014173489 -0.018147703 0.019228354 0.0008114832 0.0690349 -0.010637985
-0.02109566 0.03489107 -0.012645577 -0.028666213 -0.015692802 -0.098249406 0.05505727 -0.074714094
-0.08839365 0.017985184 0.05712949 -0.013845673 -0.0923182 0.1185846 -0.11129506 0.0071295635
0.06020043 -0.06290658 0.048826817 0.006465259 0.016380204 -0.03792168 0.06302994 0.05119716
-0.044391666 0.10061707 -0.05967854 0.06501069 -0.08997968 -0.06685633 0.03480873 0.06645118
0.017173702 0.023878839 0.11658213 -0.12273015 0.03117827 -0.009718531 -0.08300362 0.03002579
0.107352175 0.02391364 -0.07897834 0.10997408 0.07081259 -0.05620267 0.007943247 -0.047844168
0.09790177 -0.089284666 -0.047346927 -0.10077239 -0.023369083 -0.08176348 -0.057752192 0.041731194
0.08933114 0.03298393 -0.10273074 0.011255922 0.061668012 -0.08409028 0.04638571 0.050727565
-0.11682624 -0.067802235 -0.09201039 0.0723074 0.044638023 -0.08601636 0.07096589 -0.058261264
0.07109521 -0.09936825 0.055014685 -0.09621773 0.09213429 0.062172428 -0.00817071 0.07762052
0.043541033 0.06690743 0.077553965 -0.12417757 -0.083107725 -0.12516838 0.069336064 -0.1038644
00000000: 5d3c c1bd c96f 9ebd af34 ab3d 1cd5 463c
00000010: 6c24 ae3d 949c 6fbd 3c05 a0bd 2204 86bc
00000020: 25d0 ce3d 3276 dfbb 584d e5bd d1ae 69bd
00000030: 7138 4fbd 14b7 d33d 2cec a03d 6aa3 ec3b
00000040: 994c 91bc cf1a 81bb 207b e13d 7d5a 9f3d
00000050: c26d 57bd 80e9 9dbc f296 913d c621 6abc
00000060: c45d dabd 5b00 973d 8022 d43c 74c6 db3d
00000070: 6736 d43d 101b 05bd 141b e2bc 97d8 5b3d
00000080: d721 f3bd 5508 0b3c 1c43 423c 4c25 c23d
00000090: 1f48 f3bc 376e 253d bf4f 5fbd 5134 01be
000000a0: 5b86 d03d 68f6 8a3d c0a0 bfbd 240d c23d
000000b0: 1986 79bc 5851 523c 94d6 e7bd c13f 623d
000000c0: 4a45 b53d 1a15 2c3c 9ae8 c03d 39a1 bc3d
000000d0: 32c7 a53d a49a 8a3d 7da9 c4bc cdc8 6bbc
000000e0: fd8e dcbd 412d 933d f0c9 debd 6fe0 e8bd
000000f0: 5740 b9bd 1860 de3c 9e02 34bc 5679 963d
00000100: e1b1 83bd 42b6 49bd 4151 89bd 9bd5 8dbc
00000110: 0930 5cbd b81e e1bd c0c1 dd3d dbe1 713c
00000120: 3b36 c53c e7dc 4ebd 23f0 4ebd 254c 86bc
00000130: 8c72 3f3d 4390 96bd 2e10 eabd c56d 3bbd
00000140: 1a50 8fbd 8157 3ebc 695b 993d 1657 efbd
00000150: 34a8 c4bd 9d72 a1bc 7256 5dbd b6c1 7b3d
00000160: 3482 8b3d 5784 a0bd 4edc f3bd ed7c 13bd
00000170: 2ec4 d03d d71e 9cbd 7c47 26bd 8c0c ffbd
00000180: 7255 9dbd 62a6 813d 2453 c7bd e60b ce3d
00000190: 3765 c33b d7d9 7ebd 1d63 74bd c425 853d
000001a0: 1ffd 04bd 1fd0 9dbd a54e 5ebc 5c6a d53c
000001b0: d3bb a0bd ab94 debd 5cc9 903d b82a 693d
000001c0: 5819 223a c449 283d d608 e13d ceb3 163d
000001d0: 0990 e63d 81bf 843c f8bc c03a e113 683c
000001e0: 182c 1d3d c36d be3d ec53 d4bd 9fdd 8a3d
000001f0: 86dd a8bd 891b d23d fdf8 8f3d 8b27 bb3d
00000200: 63c0 91bd 08e0 6fbd 754d 043e d92b d63d
00000210: a830 e13d 7f65 afbc 82f8 c0bd 6e60 ab3d
00000220: 5857 e43c dba2 223d 6b36 dc3d d333 913d
00000230: 3296 73bc 859d c6bd bf43 c73d 5da1 743d
00000240: 1930 943d 1307 093d d10a c43d 8256 5bbd
00000250: 6407 b5bd b26d 4c3d 177c 7cbd c2e0 98bd
00000260: 2ef4 893d 824f 84bb 6556 bbbd 93f0 3c3d
00000270: cf5d d73d 0268 e6bd 71af fdbc fe1e 873d
00000280: 4da5 5a3d 65be 083d ec37 68bc 7eaa 94bc
00000290: c884 9d3c b7b9 543a 2b62 8d3d f14a 2ebc
000002a0: ced0 acbc f0e9 0e3d 652f 4fbc 68d5 eabc
000002b0: 318e 80bc fc36 c9bd bb83 613d b403 99bd
000002c0: bb07 b5bd aa55 933c 9d00 6a3d f6d8 62bc
000002d0: 5311 bdbd 7cdc f23d aaee e3bd 1d9f e93b
000002e0: ba94 763d 2ad5 80bd a1fe 473d 86da d33b
000002f0: c72f 863c c353 1bbd d715 813d 1db4 513d
00000300: 09d4 35bd 5310 ce3d 7c71 74bd 5324 853d
00000310: 4447 b8bd f9eb 88bd 9993 0e3d 8e17 883d
00000320: ddaf 8c3c 8e9d c33c 9dc2 ee3d f259 fbbd
00000330: 9269 ff3c 793a 1fbc cdfd a9bd a5f8 f53c
00000340: 75db db3d 8ae6 c33c 65bf a1bd 173a e13d
00000350: 3106 913d c534 66bd 6524 023c 3ff8 43bd
00000360: b980 c83d e1da b6bd daee 41bd c161 cebd
00000370: 8570 bfbc 9d73 a7bd 908d 6cbd 54ee 2a3d
00000380: 3ff3 b63d 281a 073d 7f64 d2bd c26a 383c
00000390: 9997 7c3d 8637 acbd f1fe 3d3d b5c7 4f3d
000003a0: 9942 efbd e6db 8abd f16f bcbd e715 943d
000003b0: 5cd6 363d 5829 b0bd 9156 913d 5da3 6ebd
000003c0: 5e9a 913d 9581 cbbd 1457 613d cd0d c5bd
000003d0: e7b0 bc3d 84a8 7e3d 71de 05bc 82f7 9e3d
000003e0: 1558 323d c306 893d 9dd4 9e3d cf50 febd
000003f0: 6234 aabd 242c 00be 1100 8e3d dcb6 d4bd

fc.weight f4 [1, 64]
0.056649964 -0.052691713 0.029107844 -0.066424295 0.10083425 -0.07961991 -0.086356185 0.0679994
0.070720896 0.09515356 -0.09313893 0.1197803 0.021985566 -0.016316855 0.11751521 -0.10033649
-0.116920404 -0.08205823 0.054141995 0.041852128 -0.038170516 0.098316476 0.093173385 -0.07100575
-0.08657353 -0.072319895 -0.026823416 -0.109273605 -0.03847336 -0.0045064464 0.03519115 0.017502591
0.06977367 -0.055334646 0.109790355 0.047098503 -0.00038185154 -0.113279745 0.11242513 0.055919036
0.089288294 -0.09662385 -0.002375087 -0.069460146 -0.04861102 0.06609681 0.052973814 -0.001192616
0.032926794 -0.120081216 0.084013045 -0.1067103 -0.053702537 -0.122440055 -0.021280637 0.0126013
-0.055052426 -0.093088076 0.005555561 0.010786159 -0.08996282 -0.08202218 0.049816832 0.032590594
00000000: cb09 683d 44d3 57bd 9373 ee3c 7609 88bd
00000010: 3082 ce3d c30f a3bd 83db b0bd 4543 8b3d
00000020: 1ed6 903d dfdf c23d a0bf bebd 604f f53d
00000030: 131b b43c edaa 85bc d0ab f03d 387d cdbd
00000040: f773 efbd 250e a8bd ffc3 5d3d 236d 2b3d
00000050: b058 1cbd 265a c93d b0d1 be3d 766b 91bd
00000060: 774d b1bd 741c 94bd c8bc dbbc d7ca dfbd
00000070: 3e96 1dbd d0aa 93bb 9824 103d 9861 8f3c
00000080: 7fe5 8e3d 95a6 62bd c4d9 e03d 5cea 403d
00000090: 3f33 c8b9 36ff e7bd 263f e63d 5c0b 653d
000000a0: c8dc b63d bae2 c5bd 59a7 1bbb 1f41 8ebd
000000b0: 591c 47bd c45d 873d 12fb 583d 8d51 9cba
000000c0: 3fde 063d 24ed f5bd 080f ac3d ee8a dabd
000000d0: 31f7 5bbd dac1 fabd bb54 aebc af75 4e3c
000000e0: a77e 61bd f6a4 bebd 6c0b b63b 6eb8 303c
000000f0: 6d3e b8bd 3ffb a7bd bc0c 4c3d b77d 053d
